…
(3, 3), activation='relu')(x)\nx = UpSampling2D((2, 2))(x)\ndecoded = Conv2D(1, (3, 3), activation='sigmoid', padding='same')(x)\n\nautoencoder = Model(input_img, decoded)\n\n\nModel(input_img, encoded).summary()\n\nModel: \"model_2\"\n_________________________________________________________________\n Layer (type)                Output Shape              Param #   \n=================================================================\n input_2 (InputLayer)        [(None, 28, 28, 1)]       0         \n                                                                 \n conv2d_7 (Conv2D)           (None, 28, 28, 16)        160       \n                                                                 \n max_pooling2d_3 (MaxPooling  (None, 14, 14, 16)       0         \n 2D)                                                             \n                                                                 \n conv2d_8 (Conv2D)           (None, 14, 14, 8)         1160      \n                                                                 \n max_pooling2d_4 (MaxPooling  (None, 7, 7, 8)          0         \n 2D)                                                             \n                                                                 \n conv2d_9 (Conv2D)           (None, 7, 7, 8)           584       \n                                                                 \n max_pooling2d_5 (MaxPooling  (None, 4, 4, 8)          0         \n 2D)                                                             \n                                                                 \n=================================================================\nTotal params: 1,904\nTrainable params: 1,904\nNon-trainable params: 0\n_________________________________________________________________\n\n\n\n\n손실함수/옵티마이저\n\nautoencoder.compile(optimize
…
3), activation='sigmoid', padding='same')(x)\n\nnoisy_autoencoder = Model(input_img, decoded)\n\n\n손상된 입력을 사용해 네트워크 훈련\n출력에는 노이즈 없는 이미지 사용\nGaussianNoise 학습 중에 확률적 노이즈 추가\n\n\nModel(input_img, decoded).summary()\n\nModel: \"model_5\"\n_________________________________________________________________\n Layer (type)                Output Shape              Param #   \n=================================================================\n input_3 (InputLayer)        [(None, 28, 28, 1)]       0         \n                                                                 \n gaussian_noise (GaussianNoi  (None, 28, 28, 1)        0         \n se)                                                             \n                                                                 \n conv2d_14 (Conv2D)          (None, 28, 28, 16)        160       \n                                                                 \n max_pooling2d_6 (MaxPooling  (None, 14, 14, 16)       0         \n 2D)                                                             \n                                                                 \n conv2d_15 (Conv2D)          (None, 14, 14, 8)         1160      \n                                                                 \n max_pooling2d_7 (MaxPooling  (None, 7, 7, 8)          0         \n 2D)                                                             \n                                                                 \n conv2d_16 (Conv2D)          (None, 7, 7, 8)           584       \n                                                                 \n max_pooling2d_8 (MaxPooling  (None, 4, 4, 8)          0         \n 2D)                                                             \n                                                                 \n conv2d_17 (Conv2D)          (None, 4, 4, 8)           584       \n                                                                 \n up_sampling2d_6 (UpSampling  (None, 8, 8, 8)          0         \n 2D)                                                             \n                                                                 \n conv2d_18 (Conv2D)          (None, 8, 8, 8)           584       \n                                                                 \n up_sampling2d_7 (UpSampling  (None, 16, 16, 8)        0         \n 2D)                                                             \n                                                                 \n conv2d_19 (Conv2D)          (None, 14, 14, 16)        1168      \n                                                                 \n up_sampling2d_8 (UpSampling  (None, 28, 28, 16)       0         \n 2D)                                                             \n                                                                 \n conv2d_20 (Conv2D)          (None, 28, 28, 1)         145       \n                                                                 \n=================================================================\nTotal params: 4,385\nTrainable params: 4,385\nNon-trainable params: 0\n_________________________________________________________________\n\n\n\nnoisy_autoencoder.compile(optimizer='adam', loss='binary_crossentropy')\n\n\nnoisy_autoencoder.fit(x_train, x_tra
…
